SIA/TrainData.pth (torch, 12007 bytes, 6 tensors)

l1.weight f4 [8, 165]
0	0x3e6bdd86	0.23033723
1	0x3f52f367	0.8240265
2	0x3ec2b258	0.3802669
3	0xbfaa0b75	-1.3284746
4	0xbe8cd6e3	-0.27507696
5	0xbfd7d12b	-1.6860708
6	0xbc81aac0	-0.01582849
7	0x3ffcfb95	1.9764277
8	0x3ef6cb6e	0.4820208
9	0x3d8a4d4e	0.06753026
10	0xbec873c3	-0.3915082
11	0x3f4ee98b	0.8082511
12	0x3f001f41	0.5004769
13	0x3ffc35bd	1.97039
14	0x3e5a845b	0.21339552
15	0x3eab77e0	0.33489895
16	0x3f58e0c1	0.8471795
17	0xbed349a2	-0.41267115
18	0xbf86fe56	-1.0546367
19	0x3f331785	0.6995776
20	0xbf15c6b8	-0.58506346
21	0xbfc7e9b9	-1.5618201
22	0x3ed6f0b6	0.41980523
23	0x3fd7e2b6	1.6866062
24	0xbef00491	-0.46878484
25	0x3f9a445b	1.205211
26	0x3e090598	0.1338104
27	0x3e0d9584	0.13826567
28	0x3f19c475	0.60065395
29	0xbea30343	-0.31838426
30	0x400e7052	2.2256055
31	0x3fec111e	1.8442724
32	0x3e071e49	0.13195147
33	0xbe3f9695	-0.18709786
34	0x3f693e9f	0.9111118
35	0x3e22b959	0.15891017
36	0xbe21f88c	-0.1581747
37	0x40166f45	2.3505414
38	0x3f758f03	0.95921344
39	0x3e993568	0.29923558
40	0x3fee8ffc	1.863769
41	0x3f01f6e7	0.5076737
42	0x3edcab66	0.43099517
43	0xbfc16b11	-1.5110799
44	0x3ed4fca7	0.41599008
45	0x4021718d	2.5225556
46	0x3f06de1f	0.5268268
47	0x3f0d211e	0.5512866
48	0xbee63243	-0.44960222
49	0x3ee9eb50	0.45687342
50	0x3e0a0e45	0.13482006
51	0xbfbd48b6	-1.4787815
52	0xbed92790	-0.42412996
53	0xbf9cf9a6	-1.2263687
54	0xbe9b9acc	-0.30391538
55	0x3f9b1549	1.2115871
56	0xbf6cf4b9	-0.9256092
57	0x3dfed1d2	0.12442364
58	0xbe981771	-0.29705384
59	0x3ed610b8	0.4180963
60	0x3f489c6d	0.78363687
61	0x3f75c186	0.9599842
62	0xbf01a109	-0.50636345
63	0x3f32ee51	0.6989489
64	0x3f915ced	1.1356484
65	0x3e90a1ad	0.2824835
66	0x3f3a5b53	0.727956
67	0xbf100895	-0.56263095
68	0xbf225860	-0.634161
69	0xbe8ad406	-0.27114886
70	0x3f2b2cec	0.6686542
71	0x3fa267b4	1.2687898
72	0xbecefe43	-0.4042836
73	0xbe80ae6e	-0.2513308
74	0xbc5a76a7	-0.013333953
75	0x3cc9c581	0.02463031
76	0x3f113c71	0.5673285
77	0x3f624d86	0.8839954
78	0x3ec0013f	0.3750095
79	0xbd8259cb	-0.06364783
80	0x3ef39498	0.47574306
81	0x3ebe812a	0.3720792
82	0x3d8e4a53	0.0694777
83	0x3e44da01	0.19223787
84	0xbfc7ff94	-1.5624871
85	0xbe12a238	-0.14319694
86	0x3ffdd355	1.9830118
87	0xbedb9e6a	-0.42894298
88	0x3f0af182	0.5427476
89	0x3ec99853	0.39374027
90	0xbff1b152	-1.8882239
91	0x3f8c2db0	1.0951443
92	0x3fa48476	1.2852924
93	0x400a9991	2.165623
94	0x3de9e546	0.114206836
95	0xbfabdda1	-1.3427011
96	0xbeddd059	-0.4332302
97	0xbe9d1aa0	-0.30684376
98	0x3e10ecbb	0.14152806
99	0x3f246ac1	0.64225394
100	0x3f19a693	0.600198
101	0x3df918df	0.12162947
102	0xbfba7da7	-1.4569596
103	0xbfc5f494	-1.5465264
104	0x3e4b5e89	0.19860281
105	0x402809d0	2.625599
106	0x3eed1d2a	0.46311313
107	0x3ed4e39e	0.41579908
108	0x3f6099e5	0.87734824
109	0x3ff31456	1.8990581
110	0x3fcf1d6c	1.6180854
111	0x3e657aa2	0.22410062
112	0xbf04327e	-0.51639545
113	0x3e30cd0b	0.17265718
114	0x3eed768c	0.46379507
115	0xbf01bead	-0.50681573
116	0xbe0c9f88	-0.13732731
117	0x3ee61a03	0.4494172
118	0xbcbcf08d	-0.023063922
119	0x3f6232c1	0.88358694
120	0x3fb468c1	1.4094468
121	0x3ecafcdb	0.39646038
122	0xbfaac71a	-1.3342011
123	0x3fafa2c0	1.3721542
124	0xbfbc2e14	-1.4701562
125	0x3f59009b	0.8476655
126	0x3f827753	1.0192665
127	0x40265ac4	2.59929
128	0x3db07a04	0.08617023
129	0x3e087024	0.13324028
130	0x3ed0daac	0.40791833
131	0xbe9ddf6a	-0.30834514
132	0x3fd7ca31	1.6858579
133	0x40233e78	2.5506878
134	0xbc859eda	-0.016311098
135	0xbf9cfbb7	-1.2264317
136	0xbf55429c	-0.8330476
137	0x3e53b2ab	0.20673625
138	0xbd1ff721	-0.03905404
139	0xbd754cb3	-0.0598876
140	0x3fd8a4c7	1.6925286
141	0xbebb70d3	-0.36609516
142	0x3fc248d3	1.5178474
143	0xbfbb06c7	-1.4611443
144	0xbf8d3000	-1.1030273
145	0x3f917a9f	1.1365546
146	0xbf664844	-0.8995402
147	0x3e6fcc68	0.23417819
148	0xbf7dbdb8	-0.9911761
149	0x4015f421	2.3430254
150	0xbf64a979	-0.89321095
151	0x3f9b0064	1.2109494
152	0x3f43a0ef	0.7641744
153	0x3e2ff533	0.1718338
154	0x3fe43072	1.7827284
155	0x403ccd9a	2.950049
156	0x3e3f3b4d	0.18674965
157	0x401417d0	2.3139534
158	0x3f9201ad	1.1406761
159	0xbc0eaa44	-0.008707587
160	0xbf7bde15	-0.98385745
161	0xbe8f149d	-0.27945414
162	0x3dcafe1c	0.09911749
163	0x3ec65be1	0.38741973
164	0xbfafc55c	-1.3732104
165	0xbd9ff13f	-0.07809686
166	0x3f696004	0.91162133
167	0xbe6f1e3a	-0.23351374
168	0xbe0e63ea	-0.13905302
169	0x40124251	2.2852976
170	0x3fa3a48c	1.2784591
171	0x3e0629b6	0.13101849
172	0x3e7c804a	0.24658313
173	0x3c732d53	0.014842349
174	0x3e97f52a	0.29679233
175	0x3f66ee7b	0.9020764
176	0x3e4e5d05	0.20152672
177	0x3f88c4b8	1.0685034
178	0xbf3c946e	-0.73663986
179	0x400f4199	2.2383788
180	0x3fd3449a	1.650531
181	0x3ebb6a74	0.36604655
182	0x3d7a058d	0.06104045
183	0x3e8e978a	0.2784999
184	0xbe9c4e69	-0.30528572
185	0xbe71706b	-0.2357804
186	0xbd0bcc95	-0.03413065
187	0xbf6b0096	-0.9179777
188	0x3e5986de	0.21242854
189	0x402a024a	2.6563897
190	0x3f8385a5	1.027516
191	0x3f5b15dc	0.8558023
192	0x3f5bf201	0.85916144
193	0xbd31fb47	-0.043452527
194	0x40006316	2.0060477
195	0xbfc41b4f	-1.5320834
196	0xbfafecf1	-1.3744184
197	0x3eaac142	0.3335057
198	0x4039b96f	2.901943
199	0x3f7c48ba	0.9854847
200	0x3f1945f4	0.59872365
201	0x3f13cdc8	0.5773587
202	0x3fdcfc2f	1.726446
203	0x3e901ba0	0.28146076
204	0x3f3bae00	0.7331238
205	0xbf37b69b	-0.7176301
206	0x3f551695	0.8323758
207	0x3fd79ead	1.6845299
208	0x4000a0f2	2.0098233
209	0xbec25077	-0.37952015
210	0xbf37afd1	-0.7175265
211	0xbe369560	-0.1783042
212	0xbda0f175	-0.07858554
213	0x3f9738ae	1.1814172
214	0x3eacec50	0.33774042
215	0x3f28ac0b	0.65887517
216	0x3e4b13dc	0.19831795
217	0x40417753	3.022908
218	0x3fa40a87	1.2815713
219	0x3fd1e4c9	1.6397945
220	0xbef1f3ed	-0.47256413
221	0x4041a58c	3.0257292
222	0xbf1adfa2	-0.60497487
223	0x3e017898	0.12643659
224	0x3f838da2	1.0277598
225	0x3f5de2d3	0.8667423
226	0xbe18634e	-0.14881632
227	0xbeaa3af5	-0.33248106
228	0x3f9d581f	1.2292517
229	0x3f46383a	0.77429545
230	0x3ee339c2	0.44380003
231	0x3fa36fcb	1.2768492
232	0xbe914598	-0.28373408
233	0x3cf0e535	0.02940617
234	0x3e9981f2	0.29981953
235	0x3e88bbda	0.2670582
236	0xbf40ba25	-0.75284034
237	0x3fc6912b	1.5513052
238	0x3ff14fe3	1.8852504
239	0x3eaa592e	0.33271164
240	0x3dd06c23	0.101768754
241	0xbd9a5d2e	-0.07537304
242	0xbead824a	-0.33888465
243	0x3dc8ac38	0.09798473
244	0x3f8b7f32	1.0898192
245	0x3b92d12d	0.004480502
246	0x3f876572	1.0577834
247	0xbf0ea50f	-0.5572061
248	0x3f21c644	0.63193154
249	0x3d8cbfda	0.0687253
250	0x3f16cd99	0.5890747
251	0x3f9fba5c	1.2478747
252	0x3f98e857	1.1945904
253	0x3f033284	0.51248956
254	0xbd484076	-0.0488896
255	0x3ffbc600	1.96698

l1.bias f4 [8]
0	0x3fb5b8b1	1.4196988
1	0x3f32c210	0.69827366
2	0x3f0b6d1c	0.5446336
3	0x3fb8e82f	1.4445857
4	0x3f9565ef	1.1671733
5	0x3ff1cf1f	1.8891333
6	0x3f08fa41	0.5350686
7	0x3f1e4e9c	0.618387

l2.weight f4 [8, 8]
0	0x3fbf0873	1.4924453
1	0x401066d3	2.256276
2	0xbf9e929c	-1.2388492
3	0x3fd7cbff	1.685913
4	0x3fefe4fc	1.8741755
5	0xbfd28380	-1.6446381
6	0xbcb002cb	-0.021485707
7	0x3f9c19fc	1.219543
8	0xbea2d841	-0.31805614
9	0xbe23c5fc	-0.15993494
10	0xbd60f6b7	-0.054922786
11	0xbd5556e6	-0.052084826
12	0xbd6c9bff	-0.057765957
13	0x3d12a36c	0.035800382
14	0x3d6225d6	0.055211864
15	0xbd13f3a8	-0.03612104
16	0x3f582def	0.8444509
17	0xbdb3dac5	-0.08781961
18	0x3f9baced	1.2162148
19	0x3fb14e51	1.3852025
20	0x3fff01c1	1.992241
21	0xbfbb3d98	-1.4628172
22	0x404cb88f	3.1987646
23	0xbf6e4973	-0.93080825
24	0x3fbf1562	1.49284
25	0x40099e57	2.1502893
26	0x404beeff	3.1864622
27	0x3db1d2cf	0.08682787
28	0xc0159979	-2.3374922
29	0x3ff4133c	1.906837
30	0x3fef2c33	1.8685364
31	0x401ca4b1	2.447552
32	0xc0034236	-2.0509162
33	0x3fde0ff7	1.7348622
34	0x3d782cec	0.060589716
35	0xbf2983f2	-0.6621696
36	0x40351c56	2.8298545
37	0x3f5746db	0.8409249
38	0xbe00fa60	-0.1259551
39	0x3f03d876	0.5150217
40	0x400900d9	2.1406767
41	0xbf87289b	-1.0559267
42	0xbec4db17	-0.38448402
43	0x401ec973	2.4810455
44	0x3fb4cd88	1.4125223
45	0x3fffe5e1	1.9992028
46	0xc013598e	-2.302341
47	0xbff80c5e	-1.9378774
48	0xbc89dbe0	-0.016828477
49	0xbe830c7b	-0.2559546
50	0xbc8fa556	-0.017534893
51	0xbe4d97ca	-0.20077434
52	0xbd6fed28	-0.05857578
53	0xbe7c1e0c	-0.24620837
54	0x3e32fddd	0.17479654
55	0x3e7eccd9	0.2488283
56	0x3eb9ce26	0.3629009
57	0xbef570ca	-0.47937614
58	0x3f47579e	0.7786807
59	0xbf3d925f	-0.7405147
60	0x400653eb	2.098872
61	0x3eeb6803	0.45977792
62	0x40042717	2.0648859
63	0xbf970a0f	-1.1799945

l2.bias f4 [8]
0	0xbeb2901f	-0.3487558
1	0xbe3f2f06	-0.18670282
2	0xbf2fac28	-0.68622065
3	0xbf81cc1e	-1.0140417
4	0x3fc077bd	1.5036541
5	0x40200c48	2.5007496
6	0xbe52e7c7	-0.20596229
7	0xbe539470	-0.20662093

l3.weight f4 [44, 8]
0	0xbd326fd1	-0.043563668
1	0xbdcfa190	-0.101382375
2	0x3ef25330	0.47329092
3	0xbece041a	-0.40237504
4	0xbf057499	-0.5213104
5	0xc015761a	-2.3353333
6	0x3e30932c	0.17243642
7	0xbf8ae44f	-1.0850924
8	0xc0073972	-2.1128812
9	0xbe004864	-0.12527615
10	0xc0bf6645	-5.981234
11	0xbf704c0c	-0.9386604
12	0xbeafbe37	-0.3432481
13	0x3fc97197	1.573779
14	0xbe9af2f2	-0.30263478
15	0xc0e6b755	-7.2098794
16	0xc0b163bf	-5.543426
17	0xbe398520	-0.1811719
18	0xc00e1157	-2.2198083
19	0x3f40379f	0.7508487
20	0xbf3675e1	-0.7127362
21	0xbf61560e	-0.88021934
22	0xbe4efa82	-0.20212749
23	0xbf73842d	-0.9512356
24	0xbea19820	-0.31561375
25	0xbe38f3d9	-0.1806177
26	0x3f154061	0.5830136
27	0xc0af4a2c	-5.477804
28	0xbf186035	-0.595218
29	0x3f6e4eae	0.93088806
30	0xbd5c7dd3	-0.053830933
31	0xc05b40cd	-3.4258301
32	0x3e8982ca	0.26857597
33	0x3ddcecbc	0.10787341
34	0x3f1e20b4	0.6176865
35	0xbd7e8d96	-0.062146746
36	0xc0572c11	-3.3620646
37	0xbf5c401c	-0.86035323
38	0xbe1bd9b7	-0.1521977
39	0xc00a5fe8	-2.1621037
40	0xbf86c63d	-1.0529248
41	0xbeab241d	-0.3342599
42	0x3e0b3d15	0.1359752
43	0xbe39a2f7	-0.18128572
44	0xbf97f8de	-1.1872823
45	0x3e42f6e3	0.19039492
46	0x3cd719ed	0.02625748
47	0xbe9a630e	-0.30153698
48	0xbeac6c4a	-0.33676368
49	0xbeae42cb	-0.34035334
50	0xbe5dcaea	-0.21659437
51	0x3f41c766	0.7569488
52	0xc04b0a5b	-3.172507
53	0xbf9cf8ce	-1.2263429
54	0xbd293186	-0.041306995
55	0xc0896d94	-4.294626
56	0x3f597a94	0.84952664
57	0xbdcff76c	-0.10154614
58	0x3f62bc57	0.88568634
59	0xbf92f206	-1.148011
60	0xc00fd135	-2.247144
61	0xbfee4024	-1.8613324
62	0x3ce0c475	0.027437428
63	0xbf823103	-1.0171207
64	0x3f4fbe4c	0.81149745
65	0x3dda6514	0.1066381
66	0x3e9da115	0.30786958
67	0xbd768098	-0.06018123
68	0xbfd5d369	-1.6705142
69	0xc0848d52	-4.142251
70	0x3e1d2ea5	0.15349825
71	0xc030dcf5	-2.7634861
72	0xbf0d1e0d	-0.5512398
73	0x3e909af3	0.28243217
74	0x3e8ef7cf	0.27923438
75	0x3e5cbe48	0.21556962
76	0xbf733fe8	-0.9501939
77	0xc0a3ddf7	-5.1208453
78	0xbe6317ce	-0.2217705
79	0xbd76ea3d	-0.06028198
80	0xc0258781	-2.5863955
81	0x3e8114bb	0.2521113
82	0xbf4a5fa5	-0.7905219
83	0x3f3b365c	0.7312982
84	0xc0a629e5	-5.192614
85	0xbdc4db47	-0.09612136
86	0x3c8c4e5f	0.017127214
87	0xc006d28b	-2.1066005
88	0xbe4d80cd	-0.20068665
89	0xbe38a4aa	-0.18031564
90	0x3ed8a2aa	0.42311603
91	0x3efc7313	0.49306545
92	0xc0768c7c	-3.8523245
93	0xc0691ba7	-3.6423128
94	0xbec9f23b	-0.3944262
95	0xbf9da616	-1.231631
96	0x3f422d3b	0.75850266
97	0x3e496a32	0.19669417
98	0x3e1ed6e9	0.15511669
99	0xbfcb54c4	-1.5885243
100	0xc068e945	-3.6392376
101	0x3f334907	0.70033306
102	0x3df4ebda	0.119590476
103	0xc087d392	-4.2445765
104	0xbf7a7153	-0.9782917
105	0xbe9eecd9	-0.31040075
106	0x3f6ee343	0.93315524
107	0xc043427e	-3.0509334
108	0x3d097330	0.033557117
109	0xc00493ca	-2.0715203
110	0xbe0215fd	-0.127037
111	0x3f446b3b	0.7672612
112	0xbf226d65	-0.6344817
113	0xbe046bd0	-0.12931752
114	0xc00a79b0	-2.1636772
115	0xc01763eb	-2.3654735
116	0xbebad9a6	-0.36494178
117	0x3f8947f3	1.0725082
118	0xbea704ca	-0.3262084
119	0x3eae72e3	0.34072027
120	0xbf8c641f	-1.0968055
121	0xbe280bf5	-0.16410811
122	0xbdc8ff83	-0.0981436
123	0x3efadffa	0.48999006
124	0xbf791ef9	-0.97312886
125	0xbfc8401a	-1.5644562
126	0xbdf81746	-0.12113814
127	0xbf9e1cdd	-1.2352558
128	0xbf075951	-0.5287066
129	0xbe0419e1	-0.12900497
130	0x3f599686	0.84995306
131	0xbe0e7d3d	-0.13914962
132	0xc01e0bd4	-2.469472
133	0xbff5c81f	-1.9201697
134	0xbe7c4265	-0.24634703
135	0x3eb0a4c0	0.34500694
136	0xbee450b1	-0.44592813
137	0xbeb38d25	-0.35068622
138	0xbf5cfc80	-0.86322784
139	0xc0b24a8b	-5.5715995
140	0x3edea093	0.43481883
141	0x3e30d897	0.17270122
142	0xbe898ef6	-0.26866883
143	0x3eafe397	0.34353325
144	0xbff20719	-1.8908416
145	0xbe4f3a3b	-0.20237057
146	0x3ed30814	0.412171
147	0xbe8a5ea8	-0.27025342
148	0xbfe7276d	-1.8058907
149	0x3ec6903b	0.38781914
150	0xbe7429dc	-0.23844093
151	0x3dcb120b	0.09915551
152	0xbff9120e	-1.9458635
153	0x3e47fdb1	0.1953037
154	0xc099ef96	-4.8104963
155	0xc06a3243	-3.6593177
156	0x3f91ccc6	1.1390617
157	0x3e5351e7	0.20636712
158	0x3df9ac20	0.12191033
159	0x3f8991ff	1.074768
160	0xc0d7ede1	-6.747788
161	0xbe3a5a84	-0.18198591
162	0xbf3e1588	-0.74251604
163	0xbfb14d81	-1.3851777
164	0xbf1788bb	-0.5919301
165	0x3f02188d	0.5081871
166	0x3e435655	0.19075902
167	0x3f99154f	1.1959628
168	0xbe8b489d	-0.27203837
169	0xbe577c70	-0.21043563
170	0xbfbcca53	-1.4749244
171	0xbfd6158c	-1.6725326
172	0x3ee43e70	0.44578886
173	0xbf022a81	-0.50846106
174	0xbdbca9f8	-0.092121065
175	0x3c22a008	0.00992585
176	0xc0b9bb4d	-5.804114
177	0x3d8d2050	0.06890929
178	0xc03ea2b9	-2.9786818
179	0x3e9f4336	0.31105965
180	0xc05f6ac8	-3.4908924
181	0xbe9e7d68	-0.30955052
182	0x3eadd510	0.33951616
183	0x3fee8057	1.8632916
184	0x3ee0fb60	0.43941784
185	0x3e5b2df2	0.21404245
186	0x3f423497	0.75861496
187	0xc0a48a8f	-5.141914
188	0xc0525e0e	-3.2869906
189	0x3ed41860	0.41424847
190	0x3d24629a	0.040133096
191	0xbf22b573	-0.6355812
192	0x3e9707be	0.29498094
193	0x3e9ab8c9	0.30219105
194	0xbeb74f6a	-0.35802776
195	0xc0171a5d	-2.360984
196	0xbf7542a8	-0.95804834
197	0x3e3cb3f9	0.18428029
198	0x3e02fa5d	0.12790819
199	0xbe810c63	-0.25204763
200	0xbf68f735	-0.9100221
201	0x3e4101be	0.18848321
202	0x3eee1ca5	0.4650623
203	0xbf30fd53	-0.6913654
204	0xbf8986b7	-1.0744237
205	0xbfa99683	-1.3249058
206	0xbe404da6	-0.1877962
207	0x3f7b377c	0.9813154
208	0xbc8c8317	-0.017152352
209	0xbe92c093	-0.28662547
210	0x3f1e5d53	0.6186115
211	0xc0b06da3	-5.5133834
212	0xbf751835	-0.9574006
213	0xbea0635c	-0.31325805
214	0xbc66bfb1	-0.014083789
215	0x3d0c1466	0.03419914
216	0xc084fa05	-4.15552
217	0xbe88c71b	-0.26714405
218	0x3e3bdf64	0.18346936
219	0x3f2d1550	0.67610645
220	0xbfd690ef	-1.676298
221	0xc006db45	-2.1071332
222	0x3ea495bc	0.32145488
223	0x3f1f1c78	0.62152815
224	0x3ef003f3	0.46878013
225	0xbcea9650	-0.028636128
226	0xc0097bd1	-2.1481822
227	0x3d83d740	0.0643754
228	0xc01d1809	-2.454592
229	0x3f323fc5	0.69628555
230	0xbdf96cda	-0.12178965
231	0xc0a9b8f7	-5.3038287
232	0xbf21ce22	-0.6320516
233	0x3dcadfa0	0.09905934
234	0xc0852ba1	-4.161576
235	0x3e2baa5e	0.16764209
236	0xbefb635d	-0.49099246
237	0x3d42830f	0.04748827
238	0xbe972246	-0.29518336
239	0xbf08a798	-0.5338073
240	0xc0bc8465	-5.8911614
241	0xbe8555c3	-0.26041993
242	0xc0621a33	-3.532849
243	0xbfb22b1f	-1.391941
244	0x3f9b8103	1.2148746
245	0x3e2bef17	0.16790424
246	0xbd2bef25	-0.041976113
247	0xbe9e4232	-0.30909878
248	0x3ec09ce2	0.37619692
249	0x3e8d2109	0.27564266
250	0xbf817b95	-1.0115839
251	0xbfdf3ce0	-1.7440453
252	0x3f8b10d7	1.0864514
253	0xc06199b7	-3.525007
254	0x3eade225	0.33961597
255	0xbf618f4c	-0.8810928

l3.bias f4 [44]
0	0xbe5cf91a	-0.215794
1	0x3fb43c1b	1.4080843
2	0x3db77b25	0.08959035
3	0x3e78431f	0.24244355
4	0xbfd9fde6	-1.7030609
5	0xbe0bb25f	-0.13642262
6	0xbf770d6d	-0.9650486
7	0xbf8a4214	-1.0801415
8	0xbdcc283e	-0.09968613
9	0xbed541d9	-0.416518
10	0xbfba741c	-1.4566684
11	0xbf5873e0	-0.8455181
12	0x3d4fb477	0.050709214
13	0x3f0247e9	0.50890976
14	0x3f149c2e	0.5805081
15	0xbf34fe76	-0.70700777
16	0xbf14b367	-0.58086246
17	0x3ea0e016	0.31420964
18	0xbd4b10f8	-0.04957673
19	0x3c591d4f	0.013251617
20	0xbda04805	-0.07826237
21	0xbce33089	-0.027733104
22	0xbecbdbc2	-0.398161
23	0xbe59f11e	-0.21283385
24	0xbf51a1eb	-0.8188769
25	0xbfbd2c44	-1.4779134
26	0xbf6b5449	-0.91925484
27	0x3e26ed70	0.16301513
28	0x3f1d4b34	0.61442876
29	0x3db5f4fb	0.08884617
30	0x3ef75594	0.48307478
31	0x3f2cab94	0.6744931
32	0x3e8c705e	0.2742948
33	0x3d9654c9	0.0734039
34	0xbdd1168f	-0.10209381
35	0x3d7db44a	0.061939515
36	0xbd2bfa11	-0.04198653
37	0xbf25e3b0	-0.6480055
38	0x3cff53b3	0.03116784
39	0xbf48f166	-0.78493345
40	0xbf85d044	-1.0454183
41	0xbf0c277a	-0.54747736
42	0x3cbc181b	0.022960713
43	0xbed3a431	-0.41336206
